checkpoint/MCAN-T.pth (torch_old, 214910 bytes, 317 tensors)

sub_mean.shifter.weight f4 [3, 3, 1, 1]
1.0 0.0 0.0 0.0 1.0 0.0 0.0 0.0
1.0
00000000: 0000 803f 0000 0000 0000 0000 0000 0000
00000010: 0000 803f 0000 0000 0000 0000 0000 0000
00000020: 0000 803f

sub_mean.shifter.bias f4 [3]
-0.4488 -0.4371 -0.404
00000000: 1dc9 e5be 92cb dfbe 17d9 cebe

add_mean.shifter.weight f4 [3, 3, 1, 1]
1.0 0.0 0.0 0.0 1.0 0.0 0.0 0.0
1.0
00000000: 0000 803f 0000 0000 0000 0000 0000 0000
00000010: 0000 803f 0000 0000 0000 0000 0000 0000
00000020: 0000 803f

add_mean.shifter.bias f4 [3]
0.4488 0.4371 0.404
00000000: 1dc9 e53e 92cb df3e 17d9 ce3e

entry.weight f4 [16, 3, 3, 3]
-0.015512823 -0.15059292 -0.08801842 -0.075401284 0.30422014 0.20350164 0.069533914 -0.23131059
-0.005426337 0.06360567 -0.07634088 0.06672926 -0.109539755 0.1897228 -0.11218126 -0.028577216
0.12148249 -0.20314091 0.013905109 -0.007302667 0.14418465 0.20779458 -0.52005625 -0.05726644
-0.02283997 0.2954253 0.035804108 0.040860258 -0.14317246 0.027069028 -0.23165666 0.023513183
0.034426626 0.04140928 -0.1015976 -0.13624899 -0.019568166 -0.23313424 -0.11671319 -0.10644056
0.5245094 -0.17620867 0.0063104965 0.036427587 -0.083791375 -0.091539554 0.17208812 -0.08795575
0.041789904 0.39519987 -0.12622258 0.07785122 0.046493955 0.07233617 0.09348034 -0.22073825
0.09362698 -0.12650387 -0.2375379 0.057204608 0.13242425 -0.21933734 0.043346412 0.01761699
-0.07589391 0.05865269 0.062821105 -0.26095283 0.07045648 0.12446401 -0.0858076 0.025104528
0.12752803 -0.00720737 0.009353575 -0.036976855 -0.31003377 0.19707046 0.12021193 -0.20059095
-0.0012361644 0.24068427 -0.20430246 -0.033381812 -0.18771681 0.13364756 0.19947416 -0.04397842
-0.21007578 -0.02881103 -0.11542974 -0.06994792 -0.16566041 -0.10264199 0.17067237 0.23378158
-0.04110353 0.05588555 0.10690301 0.039529417 0.05861312 -0.06947097 -0.03300729 -0.09828572
0.08696875 0.03549095 0.04830383 -0.09973678 -0.08289467 -0.043446347 0.33779338 -0.17230864
-0.36577722 0.17036289 -0.09110607 0.2336169 0.08453965 -0.07155756 -0.028294805 0.052382812
0.031244114 -0.32757905 0.25648466 -0.101198204 0.08811015 0.059535004 -0.09109137 0.13120213
-0.21073851 0.12922807 -0.15472536 0.046542745 0.09334262 0.046646178 -0.032379348 0.3047884
-0.1675977 0.02843679 -0.15232503 0.04147168 -0.056426164 0.2553868 -0.32541588 0.06390614
-0.0172223 -0.0382844 -0.010614722 -0.15645796 -0.17738543 0.03853815 0.10676095 0.0927179
0.03241283 -0.24221395 0.15238683 0.0042023696 0.060657073 0.29424143 0.003348344 -0.2755833
0.116181836 0.074398935 -0.18222867 0.07720116 -0.19973002 0.063028395 0.07697076 -0.1761592
-0.077443905 -0.21468036 0.052650597 0.053180706 0.05439823 -0.008205485 0.15582088 -0.06432499
-0.097172804 -0.03718667 0.0787166 -0.06099235 0.12625375 -0.23063135 0.24112256 0.040649887
0.06652347 -0.17387299 -0.027257413 0.16334236 0.22753043 -0.14206873 -0.10255121 -0.26464418
-0.18012108 0.45762512 -0.06570384 0.12650257 -0.08149213 -0.07597103 -0.015598145 0.13518907
-0.0622275 -0.10775407 -0.1424175 0.22421212 0.015535345 0.0026860947 0.15205176 0.17351225
0.06600561 0.26673907 0.042250607 -0.17675042 -0.1394294 0.04608903 -0.13572104 0.0069830623
-0.0036948097 0.31855103 -0.15628996 -0.04984262 -0.32491186 0.34901112 -0.09996764 -0.017657293
-0.19772395 -0.025251962 0.30237523 0.06207447 0.0050975475 -0.51298976 0.27094862 -0.09166754
0.16017042 -0.17788652 -0.038851596 -0.028295359 0.1722438 -0.17757681 -0.1965321 0.32254022
0.12016587 0.01153634 0.21087554 0.24551068 0.042203143 0.06751598 0.036980733 -0.43186152
0.016465124 -0.11837241 0.28009543 -0.21885563 0.1122322 -0.01626211 0.11111028 -0.046129853
00000000: 7f29 7ebc 0835 1abe 0043 b4bd fd6b 9abd
00000010: bec2 9b3e bc62 503e cc67 8e3d afdc 6cbe
00000020: 6acf b1bb b143 823d 9b58 9cbd 5aa9 883d
00000030: 6156 e0bd b246 423e 4abf e5bd c41a eabc
00000040: d0cb f83d 2c04 50be 41d2 633c 364b efbb
00000050: 24a5 133e 1ac8 543e 6822 05bf 3790 6abd
00000060: e41a bbbc fc41 973e 54a7 123d 165d 273d
00000070: cd9b 12be debf dd3c 6737 6dbe b89e c03c
00000080: ef02 0d3d c79c 293d 6712 d0bd db84 0bbe
00000090: 6b4d a0bc beba 6ebe 5307 efbd 82fd d9bd
000000a0: 3f46 063f 0c70 34be 48c8 ce3b 1835 153d
000000b0: d09a abbd 1779 bbbd de37 303e 2522 b4bd
000000c0: e42b 2b3d a357 ca3e 7e40 01be 7670 9f3d
000000d0: 7270 3e3d fc24 943d 9f72 bf3d 3509 62be
000000e0: 81bf bf3d 3b8a 01be 233d 73be 614f 6a3d
000000f0: 399a 073e f899 60be 028c 313d 8151 903c
00000100: 446e 9bbd ce3d 703d 5aa8 803d 9c9b 85be
00000110: 7d4b 903d fde6 fe3d e5bb afbd 03a8 cd3c
00000120: b596 023e cd2b ecbb bd3f 193c 0b75 17bd
00000130: bfbc 9ebe d7cc 493e ac31 f63d b767 4dbe
00000140: cb06 a2ba f075 763e aa34 51be 5ebb 08bd
00000150: d638 40be e8da 083e f442 4c3e b722 34bd
00000160: 1b1e 57be 1c05 ecbc 6d66 ecbd db40 8fbd
00000170: e2a2 29be f735 d2bd bdc4 2e3e 7064 6f3e
00000180: 2d5c 28bd 3fe8 643d f7ef da3d 99e9 213d
00000190: 5014 703d cc46 8ebd a732 07bd 064a c9bd
000001a0: ac1c b23d f55e 113d 3dda 453d cc42 ccbd
000001b0: aec4 a9bd ccf4 31bd 41f3 ac3e ad71 30be
000001c0: 2747 bbbe 9c73 2e3e d295 babd 4539 6f3e
000001d0: 2023 ad3d c58c 92bd 82ca e7bc 5c8f 563d
000001e0: a8f3 ff3c 71b8 a7be f551 833e 0141 cfbd
000001f0: 1873 b43d fada 733d 1d8e babd da59 063e
00000200: d6cb 57be 5d54 043e 5370 1ebe 9ba3 3e3d
00000210: 6a2a bf3d 1010 3f3d 35a0 04bd 3a0d 9c3e
00000220: bb9e 2bbe 45f4 e83c 18fb 1bbe 35de 293d
00000230: 1f1f 67bd 0fc2 823e e99c a6be 39e1 823d
00000240: c815 8dbc 1ad0 1cbd 5fe9 2dbc 8436 20be
00000250: 87a4 35be 2eda 1d3d 7ca5 da3d e2e2 bd3d
00000260: 51c3 043d ef06 78be 4b0b 1c3e 08b4 893b
00000270: 8d73 783d d0a6 963e e46f 5b3b 4119 8dbe
00000280: bef0 ed3d 785e 983d 279a 3abe a41b 9e3d
00000290: 0786 4cbe 0815 813d d9a2 9d3d 1463 34be
000002a0: e99a 9ebd 2bd5 5bbe 27a8 573d 03d4 593d
000002b0: aed0 5e3d 4c70 06bc 828f 1f3e d2bc 83bd
000002c0: 8902 c7bd 0d51 18bd 2b36 a13d 1dd3 79bd
000002d0: aa48 013e a02a 6cbe d5e8 763e 7f80 263d
000002e0: 753d 883d c30b 32be f04a dfbc 3843 273e
000002f0: bdfd 683e 777a 11be 5e06 d2bd 717f 87be
00000300: a971 38be d74d ea3e bc8f 86bd e489 013e
00000310: 59e5 a6bd b396 9bbd 5d8f 7fbc 016f 0a3e
00000320: 43e2 7ebd 2aae dcbd e5d5 11be dd97 653e
00000330: f687 7e3c 3109 303b 75b3 1b3e 32ad 313e
00000340: f32d 873d 0692 883e f90e 2d3d 10fe 34be
00000350: 95c6 0ebe dac7 3c3d 75fa 0abe 2cd2 e43b
00000360: 9f24 72bb 1f19 a33e 7a0a 20be c627 4cbd
00000370: d95a a6be 96b1 b23e d6bb ccbd 07a6 90bc
00000380: 2678 4abe 34dd cebc edd0 9a3e cd41 7e3d
00000390: 5409 a73b 4c53 03bf c7b9 8a3e 31bc bbbd
000003a0: b703 243e e227 36be da22 1fbd abcb e7bc
000003b0: ae60 303e b2d6 35be b63f 49be fe23 a53e
000003c0: 8619 f63d eb02 3d3c c2ef 573e 2767 7b3e
000003d0: 34dd 2c3d d145 8a3d 1c79 173d f41c ddbe
000003e0: dee1 863c 3c6d f2bd ab68 8f3e b11b 60be
000003f0: ffd9 e53d 1e38 85bc c98d e33d a8f2 3cbd

entry.bias f4 [16]
0.002504704 -0.0099310065 -0.017815273 -0.030043293 0.022585724 0.017622767 0.028221712 0.0069371406
-0.038371354 -0.03460003 -0.017774852 0.0068941168 -0.015900873 0.037826136 0.024453644 0.0092474315
00000000: f625 243b a9b5 22bc 56f1 91bc 5a1d f6bc
00000010: b205 b93c 9f5d 903c 3831 e73c f450 e33b
00000020: 482b 1dbd c3b8 0dbd 919c 91bc 0be8 e13b
00000030: 8c42 82bc 94ef 1a3d 0253 c83c 8a82 173c

entry_shrink.weight f4 [8, 16, 3, 3]
0.2009237 0.0050859316 0.100419216 0.1969104 -0.37578622 0.1302098 -0.049860798 -0.20660442
0.124565214 -0.022243561 -0.114191964 0.068862185 -0.20340215 0.16248535 -0.33473456 -0.14702353
-0.1364993 -0.05088242 0.08427353 -0.03442436 0.13946092 0.27525905 0.07874147 0.11617014
0.08128227 0.10897748 0.22993715 -0.07061613 -0.16264221 -0.117292024 0.20081824 0.1302009
-0.18319094 -0.064763024 -0.17846629 0.0525539 0.007746831 0.23525332 0.020202503 0.23330565
-0.18863328 -0.033756018 0.13122025 0.102017835 -0.19517796 0.07524772 -0.05317356 0.03007837
-0.04399798 0.091403455 -0.06620527 0.15649663 -0.05884421 -0.036019042 0.08052065 0.051929608
0.039931968 -0.22588421 0.17832051 0.21658276 0.0034818295 -0.09706936 -0.1005573 -0.14240775
-0.03273667 0.049130186 -0.14041197 0.2871363 -0.132126 -0.09052196 -0.028217858 -0.03791726
0.024638526 0.0073350966 -0.15187217 0.40469232 -0.08258843 -0.19145505 0.033914145 0.35257477
0.0014723224 -0.10483239 0.18057291 -0.060293086 -0.15990914 0.011264849 0.14371523 0.069718756
0.1616925 0.30318505 0.08389497 0.10993181 -0.14478055 0.05476262 0.015575302 -0.4831224
0.10408437 0.0029883557 0.104160026 -0.0045156037 -0.08189994 0.11900454 0.1569602 -0.114133716
0.4011586 -0.072201476 -0.27918646 0.012327898 0.04420287 0.17709747 -0.10039523 -0.21291333
0.14072648 -0.11485111 0.057727493 0.20355742 0.17890221 0.0026748443 -0.1082169 0.035439316
-0.019335698 0.08858713 0.23274702 0.15531547 0.5499124 0.06721571 0.014064155 -0.10747982
0.072022505 -0.11369775 0.21331984 -0.35469684 0.07959694 -0.27380997 -0.04030786 -0.02035353
-0.024170108 -0.013856556 0.2040379 -0.062236164 -0.05931688 -0.056648243 -0.17391121 -0.13450816
0.069842406 0.17020015 -0.055414673 -0.04785646 -0.012640508 0.034517393 -0.08281647 0.005260171
-0.021127312 -0.11107798 -0.057526134 0.009393725 -0.5147734 0.13953756 0.01812605 -0.11602717
-0.011348202 -0.05068937 0.097825125 -0.049219854 0.05856375 0.41068378 0.17989095 -0.14120995
0.121642694 -0.014661853 -0.032082327 -0.11161201 -0.12785624 -0.02792233 0.34395352 0.09448012
-0.041292872 0.11067917 -0.0031574154 -0.02093181 0.18533197 0.3040265 0.037413545 0.51833266
-0.02340751 0.03722954 0.103070214 -0.013581106 -0.054570865 0.14928858 -0.037824314 -0.028041085
0.017571265 -0.027657472 -0.21234198 0.041197285 -0.0075082234 -0.03507685 -0.0030005653 0.13971366
-0.065024056 -0.2611834 0.22852628 -0.1270237 -0.0044640834 -0.002403445 0.0074957977 0.12398011
-0.14712909 0.07208412 0.06221259 0.17259064 -0.07847155 -0.1305245 -0.0039244457 0.0383194
0.068792254 0.091317214 0.0072178203 0.72502136 -0.09580323 0.0471123 0.14248672 0.048534874
-0.03287515 0.027390612 0.32621726 0.08236251 -0.25854135 0.009806306 -0.091148935 0.03031452
0.021931171 -0.007832729 -0.0037136856 -0.029049927 0.09608344 -0.039095726 -0.03621364 -0.042417366
0.06725907 -0.057810638 -0.0037844442 0.17900565 -0.031200513 0.05196832 0.29205197 -0.1712197
0.11547656 0.048781827 -0.10631027 0.07165175 -0.04007804 0.037658244 0.114489265 -0.27072972
00000000: f1be 4d3e e3a7 a63b 97a8 cd3d e1a2 493e
00000010: 0d67 c0be b855 053e d63a 4cbd 1c90 53be
00000020: 0c1c ff3d 2138 b6bc 7add e9bd 9e07 8d3d
00000030: a748 50be 8f62 263e 5462 abbe 568d 16be
00000040: 79c6 0bbe 166a 50bd 9a97 ac3d 8f00 0dbd
00000050: d8ce 0e3e c1ee 8c3e 3543 a13d 9cea ed3d
00000060: 5277 a63d 962f df3d a574 6b3e 319f 90bd
00000070: ae8b 26be cd36 f0bd 4ca3 4d3e 6253 053e
00000080: 6896 3bbe 7aa2 84bd debf 36be c242 573d
00000090: 21d9 fd3b 3fe6 703e b87f a53c ade7 6e3e
000000a0: 1529 41be c043 0abd 9a5e 063e baee d03d
000000b0: bbdc 47be 7a1b 9a3d 85cc 59bd ea66 f63c
000000c0: 3a37 34bd bc31 bb3d a196 87bd a740 203e
000000d0: a006 71bd b488 13bd 03e8 a43d 24b4 543d
000000e0: b48f 233d 314e 67be a799 363e dfc7 5d3e
000000f0: 682f 643b 4dcc c6bd fcf0 cdbd 56d3 11be
00000100: e316 06bd bc3c 493d 28c8 0fbe 8703 933e
00000110: 0a4c 07be 9463 b9bd 2329 e7bc 214f 1bbd
00000120: bcd6 c93c 405b f03b 6184 1bbe d533 cf3e
00000130: 1f24 a9bd cb0c 44be 8fe9 0a3d ae84 b43e
00000140: f1fa c03a 5db2 d6bd 1be8 383e e2f5 76bd
00000150: 39bf 23be 3490 383c 162a 133e b5c8 8e3d
00000160: b892 253e 123b 9b3e 20d1 ab3d ee23 e13d
00000170: 5a41 14be c54e 603d 8d2f 7f3c d25b f7be
00000180: 302a d53d 4ad8 433b da51 d53d a1f7 93bb
00000190: 28bb a7bd a7b8 f33d 2dba 203e f0be e9bd
000001a0: a964 cd3e 5ede 93bd 87f1 8ebe f4fa 493c
000001b0: 120e 353d 0a59 353e 049c cdbd f405 5abe
000001c0: 9a1a 103e 0f37 ebbd aa73 6c3d 5b71 503e
000001d0: 2432 373e 714c 2f3b d2a0 ddbd d128 113d
000001e0: e665 9ebc 2b6d b53d 3c55 6e3e 050b 1f3e
000001f0: 0fc7 0c3f 64a8 893d 576d 663c 611e dcbd
00000200: 8980 933d 5eda e8bd 8470 5a3e d39a b5be
00000210: b803 a33d d230 8cbe db19 25bd 72bc a6bc
00000220: 6400 c6bc 9c06 63bc 50ef 503e 59eb 7ebd
00000230: 42f6 72bd fd07 68bd c815 32be 82bc 09be
00000240: 8909 8f3d f348 2e3e 7ffa 62bd 2305 44bd
00000250: 221a 4fbc 1c62 0d3d ae9b a9bd 835d ac3b
00000260: 2f13 adbc da7c e3bd 86a0 6bbd 23e8 193c
00000270: 31c8 03bf efe2 0e3e 157d 943c a79f edbd
00000280: cfed 39bc a89f 4fbd 8a58 c83d c29a 49bd
00000290: 8be0 6f3d 2545 d23e 5535 383e 5799 10be
000002a0: ce1f f93d 4538 70bc c268 03bd d694 e4bd
000002b0: bfec 02be 5fbd e4bc ad1a b03e cb7e c13d
000002c0: b722 29bd c3ab e23d a4ec 4ebb 3079 abbc
000002d0: aac7 3d3e 5da9 9b3e f23e 193d 73b1 043f
000002e0: 1bc1 bfbc 017e 183d 7a16 d33d 4a83 5ebc
000002f0: b385 5fbd 1bdf 183e abed 1abd 6bb6 e5bc
00000300: 9df1 8f3c ec91 e2bc 2d70 59be 7cbe 283d
00000310: 8b07 f6bb beac 0fbd 22a5 44bb 1911 0f3e
00000320: 552b 85bd d5b9 85be cb02 6a3e 8012 02be
00000330: 7247 92bb 1e83 1dbb 4f9f f53b 49e9 fd3d
00000340: 02a9 16be d7a0 933d a1d2 7e3d 9abb 303e
00000350: b1b5 a0bd 37a8 05be a398 80bb cef4 1c3d
00000360: f4e2 8c3d 8504 bb3d 7783 ec3b 009b 393f
00000370: 7c34 c4bd d4f8 403d 0ae8 113e 81cc 463d
00000380: 18a8 06bd 4762 e03c f305 a73e adad a83d
00000390: 885f 84be a1aa 203c 4bac babd 2856 f83c
000003a0: 00a9 b33c d954 00bc 4e61 73bb 1dfa edbc
000003b0: 65c7 c43d d722 20bd c154 14bd d5bd 2dbd
000003c0: 20bf 893d d9ca 6cbd 7004 78bb 424d 373e
000003d0: 3898 ffbc bcdc 543d d687 953e 3854 2fbe
000003e0: fa7e ec3d 74cf 473d 33b9 d9bd 27be 923d
000003f0: df28 24bd 883f 1a3d 5979 ea3d 169d 8abe

entry_shrink.bias f4 [8]
-0.002797935 0.027797984 0.06255342 0.06873414 -0.031295843 -0.009133067 -0.017252259 -0.016692983
00000000: 8f5d 37bb 99b8 e33c 021c 803d 7cc4 8c3d
00000010: 1230 00bd dca2 15bc 9c54 8dbc b9bf 88bc

cell1.cell1.b1.body.0.weight f4 [8, 2, 3, 3]
-0.17750956 0.23897447 -0.017694093 -0.024745973 0.22949839 0.0807455 0.049556263 -0.15670392
0.00016399848 0.0003384833 -0.048154943 0.13396804 -0.73036563 0.26806802 0.15973213 0.06474394
0.16248177 -0.031176345 0.0126312 0.46554324 0.21537331 -0.00043905494 -0.28375402 0.0013593612
-0.028361838 0.12911037 -0.08195544 -0.07517204 -0.12533695 0.13435914 0.21431383 0.19854257
0.64971185 -0.11996287 0.014481937 -0.23101723 -0.028460186 0.13086827 -0.18468498 0.05662064
-0.21100247 -0.2825601 -0.058434777 0.20066847 -0.36346033 0.0836079 0.090697214 0.041805964
0.10649694 0.26065302 -0.21902141 0.33719346 -0.19964862 -0.15645072 -0.07651733 -0.039031763
0.33813256 0.11279699 -0.0020412381 0.0729296 -0.0003984108 -0.006852893 0.11971112 -0.16656156
-0.39333534 0.553461 -0.026281757 -0.29965234 0.0034121328 0.066571355 0.09275461 0.004406526
-0.12804744 0.5661855 -0.029181521 -0.15646784 1.7167302 0.5961214 -0.004127345 0.089622825
-0.19885148 -0.03783174 0.13967682 -0.040494367 0.10997781 0.3422245 0.18590759 0.003645022
0.16998768 -0.012264163 -0.09501872 -0.19319917 0.13048926 0.21841551 0.12301559 -0.33693093
0.11833169 -0.089417234 -0.26893327 -0.190273 0.07154042 0.1957854 -0.23560199 0.60723925
-0.2868572 -0.07744424 -0.22054248 -0.05225978 -0.17489491 -0.33962157 -0.10446081 0.32292163
-0.7676372 -0.4530768 0.5166917 -0.64297915 -0.34091187 -0.090452634 -0.05495753 0.0791858
0.012254058 0.10679325 0.023969622 -0.21006626 0.13175806 -0.017349109 0.09525566 0.2769818
0.0014503616 -0.05994916 -0.3093943 -0.18433188 0.08413986 -0.14888334 -0.117278 0.16444609
-0.47499308 0.21293889 0.11280778 0.4672317 0.050083745 0.042787362 -0.114467174 -0.0014247247
00000000: 11c5 35be b9b5 743e 34f3 90bc 11b8 cabc
00000010: a001 6b3e e65d a53d 82fb 4a3d fe76 20be
00000020: 02f7 2b39 7676 b139 1e3e 45bd eb2e 093e
00000030: 3ef9 3abf 3640 893e d290 233e 7998 843d
00000040: 9f61 263e 8965 ffbc 18f3 4e3c af5b ee3e
00000050: d28a 5c3e f530 e6b9 3548 91be 982c b23a
00000060: 1657 e8bc 8235 043e 41d8 a7bd ccf3 99bd
00000070: 5458 00be 7195 093e 1675 5b3e be4e 4b3e
00000080: 8453 263f 18af f5bd a545 6d3c c88f 6cbe
00000090: 5625 e9bc 5502 063e 0f1e 3dbe 0beb 673d
000000a0: 0811 58be b8ab 90be 4e59 6fbd 097c 4d3e
000000b0: 7917 babe 9e3a ab3d 76bf b93d bb3c 2b3d
000000c0: 111b da3d 5074 853e 2647 60be 9fa4 ac3e
000000d0: b070 4cbe 9e34 20be 1eb5 9cbd c5df 1fbd
000000e0: b61f ad3e 1c02 e73d 4bc6 05bb 1d5c 953d
000000f0: cbe1 d0b9 3c8e e0bb 1b2b f53d 1d8f 2abe
00000100: 4063 c9be 9faf 0d3f d74c d7bc 086c 99be
00000110: 179e 5f3b 9056 883d 21f6 bd3d 9f64 903b
00000120: de1e 03be 88f1 103f 160e efbc 1b39 20be
00000130: d1bd db3f 699b 183f ae3e 87bb 2c8c b73d
00000140: b99f 4bbe 74f5 1abd 7107 0f3e 6cdd 25bd
00000150: 0c3c e13d 0d38 af3e 8f5e 3e3e 52e1 6e3b
00000160: 4011 2e3e a1ef 48bc 2d99 c2bd 01d6 45be
00000170: fa9e 053e 51a8 5f3e 99ef fb3d 3682 acbe
00000180: e357 f23d 6220 b7bd 9fb1 89be edd6 42be
00000190: c983 923d f87b 483e a641 71be 0874 1b3f
000001a0: f2de 92be 169b 9ebd e3d5 61be 5a0e 56bd
000001b0: a717 33be e1e2 adbe 8def d5bd fc55 a53e
000001c0: df83 44bf aff9 e7be e845 043f 489a 24bf
000001d0: 008c aebe 3b3f b9bd 261b 61bd 2a2c a23d
000001e0: 3fc5 483c 6bb6 da3d f15b c43c 9c1b 57be
000001f0: 96eb 063e b81f 8ebc 6615 c33d 8fd0 8d3e
00000200: 0f1a be3a 408d 75bd ee68 9ebe 7fc1 3cbe
00000210: 8551 ac3d e074 18be 732f f0bd 8e64 283e
00000220: 4b32 f3be a70c 5a3e c407 e73d fe38 ef3e
00000230: 9d24 4d3d cd41 2f3d c46d eabd d4bd baba

cell1.cell1.b1.body.0.bias f4 [8]
0.11913085 0.33241224 0.2012483 0.34997 0.24497388 0.05591917 0.04192707 0.09517406
00000000: e0fa f33d f031 aa3e 0914 4e3e 452f b33e
00000010: 6fda 7a3e 800b 653d b8bb 2b3d 9eea c23d

cell1.cell1.b1.body.2.weight f4 [8, 2, 3, 3]
-0.011503353 -0.14591047 -0.07566718 -0.08292947 0.3453875 -0.55259526 0.045878 -0.21951304
-0.0627291 -0.08395834 0.2223396 -0.035254885 -0.05047449 -0.32433152 0.18808697 -0.095466174
0.0258424 -0.055010792 0.013478313 0.041535664 -0.015715776 0.0521279 0.094409615 -0.10769013
-0.09565102 0.028646717 0.013939813 0.10741616 -0.047569398 -0.0015056632 0.7535882 0.23924789
0.13167761 -0.039523516 -0.048727687 0.036370926 0.37489924 -0.20354097 -0.0021836252 0.0021419062
0.011588034 -0.12173601 0.033521824 -0.0011650053 0.05391375 0.2812498 0.016220003 0.009900357
-0.070952445 -0.07173125 0.042779427 0.010136348 0.16918306 0.14138381 0.37019056 0.017220262
0.1506709 -0.36610937 -0.070662074 0.12520696 0.19264153 0.07186951 0.03546142 0.13467857
0.011755091 0.09427368 0.34767658 0.17576641 0.00975673 0.19582014 0.2361315 0.36650386
-0.053387113 -0.06779646 0.034551978 0.1992513 0.8817018 -0.14032523 -0.0026904338 0.02476814
0.006938778 -0.026423559 0.03634546 0.033745527 0.05437658 -0.1295049 0.019375341 0.008490223
-0.11117005 -0.033869527 0.114385344 -0.27797616 0.052613564 0.33296233 0.009016913 -0.10663383
0.18035816 -0.31682053 -0.00827199 0.419768 0.43129438 0.12048639 0.002429421 0.2764331
-0.01004566 -0.1438695 0.2538794 0.13534805 -0.043524005 -0.21612538 -0.23873538 -0.19826096
-0.16586746 -0.054460734 -0.096257865 -0.17640892 0.0076649585 0.027219538 0.17423704 0.12250448
0.25937518 -0.24101278 0.27925315 0.05246147 0.034823827 0.005230189 0.0077291685 0.02654655
0.028237693 -0.11328348 -0.16376363 0.0073606283 0.028308744 0.3588482 -0.053646274 0.11936625
0.096634015 -0.10532124 -0.16359834 0.2047327 -0.16291386 0.11217517 -0.72835124 0.19423737
00000000: 8f78 3cbc 8e69 15be 65f7 9abd edd6 a9bd
00000010: a1d6 b03e e276 0dbf 92ea 3b3d 07c8 60be
00000020: 1d78 80bd 5af2 abbd feac 633e 6d67 10bd
00000030: 57be 4ebd c80e a6be df99 403e c583 c3bd
00000040: 71b3 d33c ff52 61bd 24d4 5c3c 4d21 2a3d
00000050: 5fbe 80bc 1184 553d d459 c13d a58c dcbd
00000060: afe4 c3bd 85ac ea3c d063 643c 01fd db3d
00000070: 21d8 42bd ac59 c5ba 28eb 403f 66fd 743e
00000080: 7fd6 063e 69e3 21bd af96 47bd aef9 143d
00000090: cbf2 bf3e 0b6d 50be 271b 0fbb 395f 0c3b
000000a0: bddb 3d3c bb50 f9bd 2e4e 093d 17b3 98ba
000000b0: aad4 5c3d f9ff 8f3e d0df 843c 1b35 223c
000000c0: 844f 91bd d5e7 92bd 7b39 2f3d ed12 263c
000000d0: 533e 2d3e ebc6 103e 9e89 bd3e 8211 8d3c
000000e0: 7949 1a3e b072 bbbe 47b7 90bd 4136 003e
000000f0: d243 453e 5230 933d fe3f 113d 2ee9 093e
00000100: 6d98 403c 8f12 c13d aa02 b23e 1cfc 333e
00000110: b1da 1f3c 1385 483e 75cc 713e 65a6 bb3e
00000120: 72ac 5abd dfd8 8abd 6086 0d3d 8808 4c3e
00000130: 36b7 613f 6bb1 0fbe fd51 30bb 8ee6 ca3c
00000140: b05e e33b 3876 d8bc fade 143d c038 0a3d
00000150: fab9 5e3d ef9c 04be 09b9 9e3c 941a 0b3c
00000160: 20ad e3bd c6ba 0abd dd42 ea3d e452 8ebe
00000170: 5281 573d 0a7a aa3e adbb 133c d662 dabd
00000180: cfaf 383e 4d36 a2be 3e87 07bc d5eb d63e
00000190: 9ed2 dc3e 92c1 f63d ec36 1f3b a488 8d3e
000001a0: 8d96 24bc 8752 13be 7bfc 813e ae98 0a3e
000001b0: 3a46 32bd f94f 5dbe 0c77 74be ec04 4bbe
000001c0: 29d9 29be 3812 5fbd d822 c5bd 8aa4 34be
000001d0: 552a fb3b 82fb de3c 326b 323e a1e3 fa3d
000001e0: d3cc 843e 0ecc 76be 45fa 8e3e d7e1 563d
000001f0: 6ea3 0e3d 0162 ab3b f744 fd3b 2778 d93c
00000200: bc52 e73c 2b01 e8bd a7b1 27be 6d31 f13b
00000210: bde7 e73c f4ba b73e 32bc 5bbd 4b76 f43d
00000220: 0ee8 c53d aab2 d7bd 5386 27be 73a5 513e
00000230: e4d2 26be 18bc e53d 3a75 3abf 29e6 463e

cell1.cell1.b1.body.2.bias f4 [8]
0.2598796 -0.0521449 0.16189767 0.25094184 0.023667414 -0.12097639 0.19470593 0.15405165
00000000: f00e 853e e495 55bd 81c8 253e 737b 803e
00000010: 2ae2 c13c 78c2 f7bd fe60 473e b7bf 1d3e

cell1.cell1.b1.body.3.body.1.weight f4 [2, 8, 1, 1]
-0.28142393 -0.0071914936 0.16902362 0.42513043 0.1848752 -0.15543132 -0.96073365 -0.07253007
1.5114322 0.047265932 -0.94218105 0.3919082 -0.21233192 -1.4037926 -1.0437201 0.5099097
00000000: cc16 90be 9fa6 ebbb 8714 2d3e b2aa d93e
00000010: ed4f 3d3e 6329 1fbe a4f2 75bf a58a 94bd
00000020: 9c76 c13f ec99 413d c732 71bf 31a8 c83e
00000030: 8a6d 59be 7aaf b3bf 9f98 85bf 7189 023f

cell1.cell1.b1.body.3.body.1.bias f4 [2]
0.19164659 0.19717288
00000000: 013f 443e b0e7 493e

cell1.cell1.b1.body.3.body.3.weight f4 [8, 2, 1, 1]
0.05492476 -0.2951981 -0.5155687 -0.0717024 0.28184417 0.11835462 -0.17077693 1.4734942
-0.7137585 -1.4149827 0.5272447 0.45355538 -0.41961476 -2.2712054 0.51047444 0.68072104
00000000: c9f8 603d 3524 97be 4ffc 03bf b5d8 92bd
00000010: e14d 903e e863 f23d 26e0 2ebe 759b bc3f
00000020: e1b8 36bf 271e b5bf 82f9 063f 6938 e83e
00000030: bfd7 d6be 6e5b 11c0 74ae 023f bc43 2e3f

cell1.cell1.b1.body.3.body.3.bias f4 [8]
0.5092981 0.48310608 0.1637344 0.26839978 0.5370628 0.6296264 -1.0684224 -0.4379199
00000000: 5c61 023f ae59 f73e fea9 273e b26b 893e
00000010: f37c 093f 322f 213f 11c2 88bf 0a37 e0be

cell1.cell1.b2.body.0.weight f4 [8, 2, 3, 3]
0.030739568 0.15205735 -0.008615953 0.068597026 0.40429837 0.118392505 0.0023898548 -0.19197023
-0.18453011 0.4625851 0.09774556 -0.810007 0.38988787 -0.02388495 -0.57199633 0.14001024
0.43356425 0.93023413 0.031033533 -0.004022944 0.005711552 0.010318121 -0.87080175 0.025165703
0.013217746 0.020343252 0.03105704 -0.0177426 0.08476682 -0.018837748 0.07390265 1.251593
0.09080919 -0.0057843146 0.10212807 -0.08634005 -0.26503736 -0.26918143 0.058688305 -0.059478085
0.7274633 0.2355901 0.32591853 0.016855951 -0.28082362 0.008297531 0.17836529 -0.023890797
-0.11055244 -0.23799601 -0.4144963 -0.04460093 -0.02935825 0.063232936 0.031664588 -0.3183649
-0.0021549675 -0.007907255 0.043214433 -0.111114465 -0.15711933 -0.10917939 0.16538733 0.5274882
0.2064187 0.42018145 0.2188738 0.31643072 0.2881576 0.002643309 0.18173762 0.1211749
-0.2378568 0.7244714 -0.027246008 0.03456176 0.044008035 0.15103252 0.76556295 0.40352815
0.027038358 -0.31435117 0.04671891 0.20381695 0.012168168 0.30101234 0.48646194 -0.049226124
0.03993338 0.2631866 -0.52548647 -0.15787515 0.05061518 -1.9003087 -0.540757 0.19608049
0.011175549 0.3251775 0.28059354 0.054362886 0.04861837 0.0542884 -0.082958736 0.16830516
0.3517962 -0.019571146 0.022813514 0.0331243 0.17164472 0.07752759 0.070676774 0.10302166
0.3505034 0.17700586 0.54467666 0.32066417 -0.047887385 0.18263975 0.023513181 -0.21118893
-0.26029244 -0.11025779 -0.037242003 -0.14326291 -0.43939835 0.02710386 0.20468897 0.12375096
-0.5132342 0.22345848 -0.054491144 -2.4640656 0.19628726 0.22566716 -0.54822415 -0.19027889
0.011957327 0.02333135 -0.07494291 -0.09158816 0.17701605 -0.09859001 0.07188621 0.04591523
00000000: 8cd1 fb3c ecb4 1b3e ed29 0dbc 997c 8c3d
00000010: 3200 cf3e c577 f23d 1c9f 1c3b d893 44be
00000020: 76f5 3cbe f4d7 ec3e d32e c83d 9e5c 4fbf
00000030: 629f c73e 5faa c3bc 5a6e 12bf d85e 0f3e
00000040: 22fc dd3e d323 6e3f 093a fe3c e6d2 83bb
00000050: f927 bb3b 560d 293c ddec 5ebf 4e28 ce3c
00000060: 3f8f 583c e4a6 a63c 556b fe3c ee58 91bc
00000070: 3a9a ad3d 9f51 9abc 465a 973d 3334 a03f
00000080: 2bfa b93d 598a bdbb 8628 d13d 0dd3 b0bd
00000090: fab2 87be 26d2 89be 2663 703d 4b9f 73bd
000000a0: 093b 3a3f 883e 713e cbde a63e 7e15 8a3c
000000b0: 1dc8 8fbe 5ef2 073c 64a5 363e a2b6 c3bc
000000c0: 5169 e2bd 3ab5 73be dc38 d4be 77af 36bd
000000d0: b680 f0bc 4580 813d bab2 013d b900 a3be
000000e0: 5b3a 0dbb 6e8d 01bc 9e01 313d fb8f e3bd
000000f0: e4e3 20be 7299 dfbd 4c5b 293e 7709 073f
00000100: 6c5f 533e 0622 d73e 7420 603e 3503 a23e
00000110: 6589 933e 5e3b 2d3b 6d19 3a3e 8c2a f83d
00000120: bc90 73be f576 393f 0533 dfbc a290 0d3d
00000130: c541 343d 45a8 1a3e effb 433f 3e9b ce3e
00000140: 8c7f dd3c a3f2 a0be 545c 3f3d 64b5 503e
00000150: ff5c 473c 4a1e 9a3e 8a11 f93e 55a1 49bd
00000160: 2f91 233d 65c0 863e 4886 06bf 06aa 21be
00000170: dd51 4f3d 513d f3bf 0d6f 0abf 53c9 483e
00000180: a619 373c aa7d a63e f5a9 8f3e 9eab 5e3d
00000190: 0e24 473d 835d 5e3d 45e6 a9bd 3058 2c3e
000001a0: a21e b43e ab53 a0bc 68e3 ba3c 59ad 073d
000001b0: a2c3 2f3e c9c6 9e3d fcbe 903d 05fd d23d
000001c0: 2f75 b33e 0641 353e ee6f 0b3f 182e a43e
000001d0: 9025 44bd ea05 3b3e b79e c03c e941 58be
000001e0: 0d45 85be d6ce e1bd 128b 18bd 83b3 12be
000001f0: d2f8 e0be ea08 de3c fc99 513e 2571 fd3d
00000200: 5163 03bf 4dd2 643e 1b32 5fbd 40b3 1dc0
00000210: 87ff 483e 4b15 673e 6b58 0cbf 78d8 42be
00000220: aae8 433c 6321 bf3c ab7b 99bd 9392 bbbd
00000230: b243 353e 8fe9 c9bd 1439 933d 9c11 3c3d

cell1.cell1.b2.body.0.bias f4 [8]
0.1184674 -0.2504095 -0.019766735 -0.09224605 -0.08363701 0.09981796 0.25963336 0.15256861
00000000: 099f f23d ad35 80be d9ed a1bc 7feb bcbd
00000010: e149 abbd 5c6d cc3d aaee 843e f23a 1c3e

cell1.cell1.b2.body.2.weight f4 [8, 2, 3, 3]
0.000587283 0.097804956 0.15512097 0.33921576 0.10811154 -0.065834336 0.27446017 0.0015003812
-0.051067453 0.033961345 -0.35048175 0.13441838 0.5603734 -1.1409191 0.07052309 1.0181599
1.3746434 0.40800866 0.07789775 0.09143247 0.075350024 -0.128736 -0.107572496 0.036298856
-0.07017361 -0.04695057 0.01885136 0.2121686 0.5749793 0.5172267 0.2987801 2.528196
0.7103639 0.33959633 0.37300867 0.19817036 0.6812929 -0.026379267 -0.16024013 -0.43884778
-1.2993529 0.50489336 -0.5189974 -0.047780354 0.4681042 -0.027327582 -0.11608728 0.24793182
0.2729095 0.17849746 0.063801594 0.030927368 0.12594298 0.11680435 -0.21830317 0.06886157
0.124614954 0.3185319 0.60646325 -0.1755535 0.47742411 0.20065218 -0.2076847 0.08293848
0.20090224 0.10411153 -0.055874106 0.33326134 0.2908086 0.15835921 0.36781862 -0.032871205
0.16951339 0.1387361 0.17705895 0.015565991 -0.040754575 0.051266253 0.02004413 -0.0613654
0.2146249 0.2939033 0.08914433 0.15160109 0.061860695 -0.09040997 0.100573845 0.0772194
-0.09502065 0.06926434 0.18583599 0.26995847 0.08823851 -0.030736035 0.091583416 0.44140384
0.31576586 -0.16174048 -0.10700082 0.55204993 -0.07937526 0.56733215 0.4850541 0.24734086
0.25233126 0.29529536 0.11702122 0.26895493 0.030274788 0.13957743 -0.04368734 -0.022067338
0.008765926 0.4908555 0.0023652352 -0.027843777 0.1553213 0.10623245 -0.03930008 -0.014949997
0.07273149 -0.052084055 0.032886952 0.04355533 -0.082819276 0.04716489 0.015332207 -0.007229942
-0.09908738 0.04923457 0.40220198 0.28958943 0.086894654 0.46199682 0.25276858 -0.03514118
-0.14030896 0.11802567 -0.18665357 -0.9312349 -0.108873956 -0.37191513 -0.4541628 -0.01977419
00000000: e5f3 193a f74d c83d 08d8 1e3e b0ad ad3e
00000010: 9569 dd3d 27d4 86bd 0b86 8c3e 70a8 c43a
00000020: 1b2c 51bd 0d1b 0b3d 5872 b3be f9a4 093e
00000030: a274 0f3f a309 92bf 696e 903d 1053 823f
00000040: 51f4 af3f 83e6 d03e db88 9f3d f240 bb3d
00000050: 1d51 9a3d 5fd3 03be f84e dcbd 1cae 143d
00000060: 2eb7 8fbd 3e4f 40bd 2b6e 9a3c ba42 593e
00000070: d831 133f f868 043f b5f9 983e f7cd 2140
00000080: 69da 353f 92df ad3e fefa be3e 2ced 4a3e
00000090: 3669 2e3f 5519 d8bc fd15 24be a8b0 e0be
000000a0: 3251 a6bf b140 013f 03dd 04bf 55b5 43bd
000000b0: 5bab ef3e 18de dfbc 2bbf edbd d7e1 7d3e
000000c0: cbba 8b3e 0ac8 363e 69aa 823d 645b fd3c
000000d0: 32f7 003e 1e37 ef3d de8a 5fbe 4b07 8d3d
000000e0: 2036 ff3d 9d16 a33e 2d41 1b3f 4cc4 33be
000000f0: ef70 f43e c477 4d3e 4cab 54be a6db a93d
00000100: 51b9 4d3e 6d38 d53d 3fdc 64bd 3ba1 aa3e
00000110: dde4 943e eb28 223e b952 bc3e f5a3 06bd
00000120: eb94 2d3e d610 0e3e f14e 353e 8008 7f3c
00000130: 45ee 26bd 90fc 513d 9633 a43c 495a 7bbd
00000140: a1c6 5b3e 7e7a 963e 4d91 b63d 513d 1b3e
00000150: a461 7d3d dd28 b9bd a9f9 cd3d 3425 9e3d
00000160: 309a c2bd 76da 8d3d ca4b 3e3e ff37 8a3e
00000170: 64b6 b43d 23ca fbbc 1690 bb3d afff e13e
00000180: 10ac a13e 4c9f 25be 3f23 dbbd 2553 0d3f
00000190: 7f8f a2bd ae3c 113f 0359 f83e ec46 7d3e
000001a0: 9031 813e f430 973e d2a8 ef3d 76b4 893e
000001b0: d502 f83c 63ed 0e3e 7ff1 32bd 90c6 b4bc
000001c0: f59e 0f3c 6951 fb3e 1002 1b3b a218 e4bc
000001d0: 8c0c 1f3e 6690 d93d 1ff9 20bd d5f0 74bc
000001e0: 3ff4 943d 1756 55bd 78b4 063d 1367 323d
000001f0: 279d a9bd f92f 413d f033 7b3c 26e9 ecbb
00000200: 53ee cabd 30aa 493d 6bed cd3e 1145 943e
00000210: d3f5 b13d d98a ec3e e26a 813e 33f0 0fbd
00000220: 27ad 0fbe 71b7 f13d 1d22 3fbe 6965 6ebf
00000230: 4ff9 debd a96b bebe 0788 e8be 7bfd a1bc

cell1.cell1.b2.body.2.bias f4 [8]
0.009979005 0.0003394684 -0.13655609 -0.15835068 0.108202 0.20412502 -0.16091758 0.28153092
00000000: fb7e 233c adfa b139 5cd5 0bbe ae26 22be
00000010: 0399 dd3d 2606 513e 94c7 24be d224 903e

cell1.cell1.b2.body.3.body.1.weight f4 [2, 8, 1, 1]
-0.14492851 0.3292881 0.14851472 -0.04133004 -0.22993264 -0.010390431 0.061053634 -0.30750805
-0.14612654 3.6395204 -0.08992116 0.3979761 0.3380834 0.067435496 -1.1629233 1.4067292
00000000: 2468 14be 7398 a83e 3e14 183e b049 29bd
00000010: 7673 6bbe a03c 2abc 6013 7a3d b271 9dbe
00000020: 32a2 15be e7ed 6840 9628 b8bd 86c3 cb3e
00000030: 4419 ad3e 9f1b 8a3d acda 94bf b40f b43f

cell1.cell1.b2.body.3.body.1.bias f4 [2]
-0.157147 0.09204191
00000000: 25eb 20be 7880 bc3d

cell1.cell1.b2.body.3.body.3.weight f4 [8, 2, 1, 1]
-0.35740173 1.0770258 0.015307963 1.4023547 -0.006244242 0.11041194 -0.6412579 0.4138217
0.26984787 0.43594444 0.13676721 -0.8151534 0.08012062 0.55103743 0.40001696 0.40899843
00000000: 5cfd b6be fbdb 893f 40ce 7a3c 5c80 b33f
00000010: 809c ccbb a81f e23d 7a29 24bf 70e0 d33e
00000020: 8029 8a3e 1c34 df3e b40c 0c3e e5ad 50bf
00000030: 4816 a43d ca10 0d3f 06cf cc3e 3e68 d13e

cell1.cell1.b2.body.3.body.3.bias f4 [8]
0.05044544 1.3776529 0.7694496 1.1229358 -0.5373976 0.2657796 0.14403762 0.12570737
00000000: e19f 4e3d ee56 b03f a6fa 443f 5cbc 8f3f
00000010: e492 09bf 4414 883e 997e 133e 6fb9 003e

cell1.cell1.b3.body.0.weight f4 [8, 2, 3, 3]
0.024171721 -0.04807698 0.20152397 -0.3130618 0.68915033 0.015266524 -0.016585425 0.3230436
0.112475954 0.06526087 -0.006290947 -0.031877197 0.22473773 0.27503315 0.07242755 -0.12501052
0.40332428 0.1391843 -0.092672765 -0.16437803 0.34275222 0.058362808 -0.19168992 -0.048842344
0.025345502 0.1041867 -0.027267527 -0.05640741 -0.0060373275 0.083664306 0.08987507 0.21006712
0.16300637 -0.1041751 0.07488878 -0.10860505 -0.098992415 0.06385356 0.034875993 -0.72164696
-1.0542947 0.010081933 -0.22406141 -0.8943502 0.08305814 -0.06899138 -0.04225929 0.18453585
-0.6077017 0.26294333 0.12897831 0.042634595 0.05247916 0.07599694 -0.010580782 0.19388324
-0.0651938 0.055029858 0.1840875 0.081701584 0.20190549 0.36665618 0.020763896 0.23608682
-0.12116383 0.28480226 0.5886946 1.1399907 0.20505059 0.13616496 0.16086884 -0.06616468
-0.01048698 0.08343507 0.10530772 -0.09567808 0.035761017 0.094046205 -0.0067945155 0.105144896
0.113555856 -0.13361134 -0.08044902 -0.049713615 -0.15533721 -0.14319201 -0.118213706 -0.46144032
0.78228104 0.67072797 -0.048816826 0.043810673 -0.03592255 -0.10775957 0.060816094 -0.009185362
-0.039740983 -0.03640221 0.070440665 0.16030282 0.31405747 -0.05208831 -0.11277001 0.4965187
-0.10977212 0.27323392 0.03243005 0.04639881 0.040513676 0.15474446 0.0009792463 -0.024087224
-0.018241784 0.1895802 -0.0014205974 -0.10567173 0.029420173 -0.020394588 0.06628672 0.06340746
-0.16921952 0.51363546 0.48415884 -0.029291064 -0.14701736 0.11272445 -0.00438997 -0.5339087
0.10593119 0.07714485 -0.073223785 -0.027425744 0.0118805785 -0.08728932 0.039587233 0.028733691
0.26369232 0.043988634 -0.1399414 -0.24499547 -0.0005259511 0.081747994 0.069520384 -0.04751495
00000000: c603 c63c 5eec 44bd 4d5c 4e3e a349 a0be
00000010: 286c 303f 7120 7a3c 28de 87bc f965 a53e
00000020: cb59 e63d 7ea7 853d 4a24 cebb aa91 02bd
00000030: a621 663e 25d1 8c3e e554 943d c202 00be
00000040: 8580 ce3e 5486 0e3e 38cb bdbd b752 28be
00000050: 387d af3e d70d 6f3d 5d4a 44be e90e 48bd
00000060: 5fa1 cf3c d65f d53d 2660 dfbc 750b 67bd
00000070: c6d4 c5bb 3158 ab3d 6c10 b83d d61b 573e
00000080: 24eb 263e c159 d5bd 4a5f 993d 536c debd
00000090: 89bc cabd a8c5 823d 21da 0e3d dbbd 38bf
000000a0: 21f3 86bf b12e 253c 5b70 65be 22f4 64bf
000000b0: 631a aa3d 5a4b 8dbd 1418 2dbd f7f6 3c3e
000000c0: 5792 1bbf 82a0 863e e412 043e 9da1 2e3d
000000d0: 63f4 563d 49a4 9b3d 045b 2dbc 5489 463e
000000e0: 5484 85bd fd66 613d 6f81 3c3e 2953 a73d
000000f0: 50c0 4e3e 5cba bb3e 0c19 aa3c bec0 713e
00000100: be24 f8bd 9ad1 913e b0b4 163f 37eb 913f
00000110: c8f8 513e d46e 0b3e cdba 243e 5981 87bd
00000120: 95d1 2bbc 02e0 aa3d 93ab d73d dff2 c3bd
00000130: 257a 123d 4c9b c03d 87a4 debb 3556 d73d
00000140: f98f e83d 69d1 08be 75c2 a4bd 81a0 4bbd
00000150: b810 1fbe eda0 12be 071a f2bd e841 ecbe
00000160: 9243 483f d4b4 2b3f 27f4 47bd d272 333d
00000170: 8623 13bd 0db1 dcbd 4c1a 793d 337e 16bc
00000180: 71c7 22bd 7c1a 15bd 3243 903d 6c26 243e
00000190: 24cc a03e 8d5a 55bd f7f3 e6bd b337 fe3e
000001a0: 35d0 e0bd 51e5 8b3e 5fd5 043d ae0c 3e3d
000001b0: abf1 253d 5575 1e3e 0e5a 803a 9252 c5bc
000001c0: cb6f 95bc 5021 423e 5733 baba 6c6a d8bd
000001d0: 9302 f13c 8d12 a7bc 55c1 873d c5db 813d
000001e0: e247 2dbe 9d7d 033f abe3 f73e d0f3 efbc
000001f0: b88b 16be 14dc e63d bdd9 8fbb 3eae 08bf
00000200: 74f2 d83d 1efe 9d3d 5af6 95bd f4ab e0bc
00000210: c2a6 423c bec4 b2bd 3926 223d eb62 eb3c
00000220: ae02 873e 6d2d 343d cc4c 0fbe 18e0 7abe
00000230: fbdf 09ba 7e6b a73d b460 8e3d 099f 42bd

cell1.cell1.b3.body.0.bias f4 [8]
0.0051987707 0.30037987 0.05546894 0.0019554677 -0.012446714 -1.773239e-05 -0.3484675 0.19477315
00000000: 735a aa3b 64cb 993e 6633 633d 4e27 003b
00000010: 4ded 4bbc 04c0 94b7 556a b2be 9d72 473e

cell1.cell1.b3.body.2.weight f4 [8, 2, 3, 3]
-0.044495754 -0.11899491 -0.3346022 -0.12985165 -0.6073981 -0.045043394 0.04907747 0.05124667
-0.29689413 -0.015732639 -0.20447733 0.006751207 -0.23277052 0.36339673 -0.07776323 -0.010485907
-0.22026521 0.3205855 -0.05622194 -0.36064607 -0.119883604 -0.14169443 -0.013892646 -0.21626595
0.025897024 0.037203994 0.05097193 0.17926832 0.10921822 0.044309266 0.10422728 0.019960769
0.075663574 0.091985 0.13369541 0.16811606 -0.4126315 -0.1892457 -0.37428853 0.048030697
-0.5122025 0.44819823 -0.22404964 -0.20312345 -0.5917293 -0.19250822 0.11639508 -0.014693293
-0.0364389 0.24785796 0.6252578 -0.21091075 0.4238523 -0.08753406 0.37870646 0.064546496
0.2632802 0.4024701 0.18895388 0.33014148 0.2671594 0.54979366 0.36233932 0.0038133557
0.3403927 0.34823403 0.19577324 -0.029417617 0.095927246 0.27388164 0.29565862 -0.00090195367
-0.46062082 -0.26789364 0.63240594 0.46522942 0.8430208 0.14494288 0.105121486 0.16173749
0.15333106 -0.072780915 0.2569078 0.03752504 0.8445953 -0.49658656 0.33845562 0.4660849
0.0073677925 -0.4607746 0.08984716 0.011586893 -0.027611425 -0.09724332 -0.029978577 -0.027198358
0.026629936 -0.027185574 0.011786959 0.06581407 0.007061327 -0.09933488 -0.08129268 0.31802702
0.331243 0.010159526 0.022431508 0.037197366 0.05518614 0.13603012 -0.042741366 -0.2444179
-0.086847134 0.03839966 -0.045246474 -0.27409217 0.13595065 0.05657997 -0.09857917 0.094459906
0.03551303 -0.2447259 -0.04223155 0.13066725 -0.11139796 0.12963954 0.10363055 -0.2977453
0.1013741 0.058409724 -0.92318016 0.04765653 0.03771068 0.30947423 0.21284355 -0.14446376
-0.05051358 0.12410692 -0.0937294 -0.12324307 -0.19965418 -0.0014511182 1.0106361 0.08426171
00000000: 2e41 36bd 9ab3 f3bd fb50 abbe d5f7 04be
00000010: 717e 1bbf 6c7f 38bd 7505 493d 07e8 513d
00000020: 8202 98be bce1 80bc 8162 51be 3b39 dd3b
00000030: 655b 6ebe 230f ba3e 5442 9fbd 15cd 2bbc
00000040: 348d 61be c823 a43e fa48 66bd 9aa6 b8be
00000050: 8985 f5bd 5818 11be fb9d 63bc d274 5dbe
00000060: ff25 d43c 3763 183d f1c7 503d 1d92 373e
00000070: cdad df3d a27d 353d 1d75 d53d c484 a33c
00000080: 81f5 9a3d a262 bc3d 73e7 083e 9e26 2c3e
00000090: 7044 d3be a0c9 41be bfa2 bfbe d6bb 443d
000000a0: b41f 03bf 3d7a e53e 456d 65be 98ff 4fbe
000000b0: 927b 17bf e020 45be 8b60 ee3d 23bc 70bc
000000c0: f540 15bd 7ace 7d3e e510 203f fdf8 57be
000000d0: 2b03 d93e 0f45 b3bd d0e5 c13e f430 843d
000000e0: aacc 863e 9010 ce3e 207d 413e 4e08 a93e
000000f0: 1ec9 883e 47bf 0c3f 8a84 b93e 7ee9 793b
00000100: f447 ae3e bb4b b23e c878 483e 37fd f0bc
00000110: 8175 c43d 373a 8c3e 9160 973e 1671 6cba
00000120: 7ed6 ebbe 5b29 89be 5be5 213f 8d32 ee3e
00000130: 36d0 573f e86b 143e ef49 d73d 839e 253e
00000140: d102 1d3e 290e 95bd 6b89 833e dbb3 193d
00000150: 6637 583f 9840 febe 0e4a ad3e aea2 ee3e
00000160: 866d f13b a6ea ebbe ca01 b83d f4d6 3d3c
00000170: 5b31 e2bc 8127 c7bd a295 f5bc 17cf debc
00000180: 0627 da3c 48b4 debc 171e 413c 87c9 863d
00000190: b462 e73b 1670 cbbd c77c a6bd 70d4 a23e
000001a0: af98 a93e 2474 263c 48c2 b73c 445c 183d
000001b0: dd0a 623d 7b4b 0b3e 9211 2fbd b048 7abe
000001c0: e9dc b1bd f648 1d3d 5e54 39bd cf55 8cbe
000001d0: a636 0b3e 66c0 673d e0e3 c9bd 3274 c13d
000001e0: 1c76 113d 6d99 7abe fdfa 2cbd a3cd 053e
000001f0: 9d24 e4bd 3ac0 043e 413c d43d 1272 98be
00000200: 399d cf3d 093f 6f3d 8955 6cbf 7e33 433d
00000210: 8476 1a3d 6873 9e3e a9f3 593e 4fee 13be
00000220: 54e7 4ebd c52b fe3d 33f5 bfbd dd66 fcbd
00000230: 2572 4cbe 7233 beba 865c 813f 6791 ac3d

cell1.cell1.b3.body.2.bias f4 [8]
-0.014346313 0.21290687 0.057171367 0.06942999 0.16977715 -0.36362275 -0.26074693 0.21411645
00000000: cc0c 6bbc 4204 5a3e 862c 6a3d 5031 8e3d
00000010: 10da 2d3e c32c babe 9f80 85be 5841 5b3e

cell1.cell1.b3.body.3.body.1.weight f4 [2, 8, 1, 1]
-0.14543933 0.150879 0.23142073 -0.34324828 -0.34433803 -0.08461124 0.05497849 -0.05680281
0.569994 0.46117368 -0.4987896 0.2855125 0.11141006 -0.018130025 0.10378975 0.046288
00000000: 0cee 14be 0680 1a3e 8ef9 6c3e 3dbe afbe
00000010: 134d b0be a848 adbd 2031 613d 10aa 68bd
00000020: 20eb 113f f51e ec3e 5a61 ffbe b22e 923e
00000030: f52a e43d 6b85 94bc b88f d43d 7c98 3d3d

cell1.cell1.b3.body.3.body.1.bias f4 [2]
-0.035479426 0.047372583
00000000: e052 11bd c109 423d

cell1.cell1.b3.body.3.body.3.weight f4 [8, 2, 1, 1]
-0.4789782 -1.5199972 -0.21017495 -0.2965435 0.0104801655 0.0024012765 0.46149737 0.73319435
-0.07826173 -0.14332381 0.15063941 1.0387619 0.55352944 0.3729922 0.6852265 -1.2264948
00000000: a13c f5be 458f c2bf 1a38 57be 8dd4 97be
00000010: 00b5 2b3c bc5e 1d3b 6249 ec3e a0b2 3b3f
00000020: b047 a0bd 7ac3 12be 3841 1a3e 26f6 843f
00000030: 1bb4 0d3f d5f8 be3e 016b 2f3f c8fd 9cbf

cell1.cell1.b3.body.3.body.3.bias f4 [8]
0.008882884 0.60100347 0.59904546 -0.005947002 0.7651174 0.57014936 0.727603 0.98264396
00000000: 8489 113c 5ddb 193f 0b5b 193f 12df c2bb
00000010: bcde 433f 4ff5 113f 3144 3a3f 8e8e 7b3f

cell1.cell1.c1.body.0.weight f4 [8, 16, 1, 1]
-0.35904115 -0.027350735 0.6091774 -0.11391811 -0.23660216 -0.014509112 0.22576746 0.012908994
-0.36862257 0.014811995 -0.08426619 -0.2635642 0.18085384 -0.14052387 -0.72595507 0.01120861
0.018415224 0.011307082 0.87947786 0.1871843 -0.41382304 0.029276492 -0.31172284 -0.013065246
0.13242896 0.06344593 0.3807512 -0.20172669 0.42191717 -0.03083491 0.08251274 0.0022300975
0.263503 -0.1677766 -0.35120046 0.70654607 -0.26107717 -0.22845466 0.3628099 0.29136822
0.044575714 0.07610525 0.11210225 0.23427851 0.15322147 -0.07335428 -0.29142416 -0.006064945
-0.42148632 -0.10326615 0.1706658 0.3483401 -0.07692634 -0.15307395 0.48043436 -0.072198
0.3528812 0.19222017 -0.14613017 0.16108857 0.04786073 -0.029848054 -0.9204099 0.3789699
0.56824213 -0.32932618 -0.023467558 0.5492641 -0.004675537 -0.2224446 0.11186558 0.5814344
0.026345264 -0.051592894 -0.06654811 0.11208854 -0.0025133304 0.07548798 0.020865863 -0.012729364
-0.3292788 0.1816631 -0.3872753 -0.4352981 0.05038494 -0.0048751407 -0.08339979 0.24919054
-0.16956602 0.30009875 0.36223242 -0.15226123 -0.028153364 -0.017674211 0.20913419 -0.07653798
-0.053667698 0.20656261 -0.07002561 -0.3158106 0.093495354 -0.26661494 -0.016457072 -0.052139573
-0.001705218 0.6928514 0.065264605 0.03793776 -0.025725828 0.2758841 0.006631306 -0.11719329
-0.04588883 0.13127753 -0.038382087 -0.5434877 0.37540329 -0.071884744 -0.4015604 -0.14696611
0.24302414 0.5780203 -0.12468193 -0.07436982 -0.3713896 -0.010718851 0.9720065 0.013781117
00000000: 3ed4 b7be a60e e0bc 0df3 1b3f e64d e9bd
00000010: d647 72be a0b7 6dbc 962f 673e 3f80 533c
00000020: 19bc bcbe 03ae 723c c193 acbd e3f1 86be
00000030: c031 393e 7de5 0fbe 31d8 39bf 51a4 373c
00000040: 86db 963c 5741 393c 7625 613f 3ead 3f3e
00000050: 9de0 d3be 41d5 ef3c 239a 9fbe 9d0f 56bc
00000060: 759b 073e f1ef 813d d2f1 c23e 7191 4ebe
00000070: 8705 d83e 7e99 fcbc 70fc a83d d426 123b
00000080: dde9 863e a1cd 2bbe 8cd0 b3be 34e0 343f
00000090: e8ab 85be 05f0 69be 38c2 b93e 372e 953e
000000a0: 0695 363d 12dd 9b3d dd95 e53d b5e6 6f3e
000000b0: 17e6 1c3e c53a 96bd 8c35 95be 72bc c6bb
000000c0: 0ecd d7be 347d d3bd 04c3 2e3e a259 b23e
000000d0: 8f8b 9dbd 6bbf 1cbe 7efb f53e 8cdc 93bd
000000e0: d8ac b43e 5dd5 443e 26a3 15be 67f4 243e
000000f0: 9d09 443d e883 f4bc fc9f 6bbf 5808 c23e
00000100: 5178 113f 719d a8be 093f c0bc 929c 0c3f
00000110: 3f35 99bb 84c8 63be c819 e53d e3d8 143f
00000120: 06d2 d73c 1253 53bd 604a 88bd ad8e e53d
00000130: b0b6 24bb 7199 9a3d e3ee aa3c d38e 50bc
00000140: 3b97 a8be e405 3a3e f348 c6be 64df debe
00000150: 7060 4e3d a5bf 9fbb 82cd aabd ce2b 7f3e
00000160: b7a2 2dbe 8ba6 993e 8776 b93e 5eea 1bbe
00000170: e2a1 e6bc 82c9 90bc 4627 563e f2bf 9cbd
00000180: a9d2 5bbd 2685 533e 9669 8fbd edb1 a1be
00000190: 7e7a bf3d c181 88be fbd0 86bc 4e90 55bd
000001a0: 9f81 dfba b65e 313f 73a9 853d a064 1b3d
000001b0: f9be d2bc ae40 8d3e 6d4b d93b 0903 f0bd
000001c0: edf5 3bbd 9e6d 063e 8936 1dbd 0322 0bbf
000001d0: dc34 c03e 4f38 93bd 5399 cdbe 497e 16be
000001e0: 52db 783e 23f9 133f 3d59 ffbd 344f 98bd
000001f0: c726 bebe 1f9e 2fbc 6bd5 783f 32ca 613c

cell1.cell1.c1.body.0.bias f4 [8]
0.056078777 -0.32837254 -0.09757411 0.017968085 -0.034058943 0.06603485 -0.12011195 0.22347078
00000000: dcb2 653d 7220 a8be efd4 c7bd ce31 933c
00000010: 6481 0bbd 483d 873d 41fd f5bd 86d5 643e

cell1.cell1.c2.body.0.weight f4 [8, 24, 1, 1]
-0.2829078 -0.10969009 -0.20142172 0.76411796 -0.20772015 0.1228222 0.1398606 -0.03359442
0.005085122 -0.6446991 0.22071391 -0.104741305 0.19199897 -0.043252483 -0.56864905 0.1570373
-0.2580663 0.3390099 -0.15269147 0.24989891 0.32107544 -0.07270081 0.5036785 -0.061230134
0.0054841004 0.18172483 -0.19775389 -0.34111705 0.043746516 -0.1267112 -0.131313 -0.13971594
-0.097327955 0.40443298 0.11577417 -0.01724637 0.043238863 0.10361882 0.17690182 0.21255785
0.014289372 -0.22008361 0.014789635 0.17336184 0.11378412 -0.56008905 0.07491505 0.35388008
-0.14278902 0.33123037 -0.13283439 -0.4644335 0.13795556 -0.40026072 0.12513784 -0.15463832
0.06409263 0.7425253 0.14837684 0.013173927 -0.07689967 0.30098236 -0.1374437 -0.12157517
-0.084325664 0.08820143 0.039967608 -0.12557931 -0.22052678 0.075013764 -0.18275319 -0.06766728
0.11123688 0.0005082029 0.2528281 0.045619152 0.22342514 -0.07819988 -0.6730168 -0.16839194
-0.0080127185 -0.17145337 -0.23840173 -0.33810863 0.051188078 0.33612913 1.1443931 0.47203934
0.47867566 -0.25470394 -0.030210271 0.24486709 0.086416446 -0.12885928 -0.08427509 0.21738127
0.03797056 0.1342732 0.13402875 -0.015385862 0.20699789 -0.01858432 0.07806877 -0.075941466
-0.07130103 -0.1560861 0.13753198 0.016902862 -0.09035542 -0.063440286 0.009134994 -0.019576445
0.11178755 0.095119536 -0.120072395 -0.07248755 -0.16134511 0.07461694 0.0671249 -0.22323275
-0.22069317 -0.07527539 -1.3532927 0.14838819 -0.85395086 -0.23367229 0.42870164 -0.02301553
-0.032941367 -0.056303695 -0.55267084 -0.08987608 0.7970903 -0.008987939 0.111828096 -0.011669584
-0.070286274 -0.09156001 0.08148887 0.10642935 -0.057190906 -0.037377615 0.02318526 0.03828114
-0.26496765 0.0183572 -0.11018373 0.0049203155 -0.041324113 -0.2638849 0.29426774 0.5725005
0.027626371 0.0014767522 0.10807969 0.063967176 0.053204168 0.019751564 -0.45106137 0.40476
0.018465888 0.0726534 0.080681086 -0.08962427 -0.18424097 0.12080347 0.08720572 -0.08723683
0.17831883 -0.2453812 -0.018374167 0.2987934 0.23517247 0.17588562 -0.5489556 -0.17049748
-0.09112837 -0.5286247 0.015352979 0.012592241 -0.2647872 0.10211762 1.0438682 0.31727067
0.19926244 -0.29487458 -0.08274673 0.13434097 0.2760077 -0.22440608 0.66928136 -0.045709625
00000000: 4bd9 90be 33a5 e0bd 7f41 4ebe 3c9d 433f
00000010: 97b4 54be 358a fb3d 9e37 0f3e 4d9a 09bd
00000020: 18a1 a63b 000b 25bf d402 623e 9c82 d6bd
00000030: 619b 443e 8429 31bd fc92 11bf 63ce 203e
00000040: 4421 84be b592 ad3e 275b 1cbe 80e5 7f3e
00000050: 0064 a43e 2ae4 94bd 13f1 003f 73cc 7abd
00000060: f8b3 b33b 1316 3a3e ff7f 4abe e5a6 aebe
00000070: 8c2f 333d 95c0 01be ea76 06be b211 0fbe
00000080: e153 c7bd d711 cf3e 021b ed3d 4248 8dbc
00000090: 3c1b 313d 1b36 d43d c025 353e c4a8 593e
000000a0: f81d 6a3c 995d 61be 3a50 723c c485 313e
000000b0: a607 e93d ff61 0fbf 106d 993d c52f b53e
000000c0: 4937 12be 0797 a93e bd05 08be 3aca edbe
000000d0: 3944 0d3e f9ee ccbe 2224 003e 8259 1ebe
000000e0: ff42 833d 2316 3e3f 19f0 173e 74d7 573c
000000f0: 937d 9dbd 5c1a 9a3e 0bbe 0cbe 67fc f8bd
00000100: efb2 acbd f4a2 b43d 13b5 233d dd97 00be
00000110: c6d1 61be d1a0 993d a723 3bbe 2595 8abd
00000120: 29d0 e33d eb38 053a af72 813e 26db 3a3d
00000130: 8fc9 643e 4227 a0bd d44a 2cbf f06e 2cbe
00000140: c747 03bc 7991 2fbe 951f 74be 931c adbe
00000150: 97aa 513d 1e19 ac3e 797b 923f 24af f13e
00000160: fa14 f53e 8e68 82be 887b f7bc 70be 7a3e
00000170: 1bfb b03d b0f3 03be 6b98 acbd 3299 5e3e
00000180: 0587 1b3d ea7e 093e d53e 093e fc14 7cbc
00000190: 41f7 533e 253e 98bc 85e2 9f3d 3387 9bbd
000001a0: 4606 92bd 09d5 1fbe 2fd5 0c3e df77 8a3c
000001b0: 430c b9bd fbec 81bd f1aa 153c c85e a0bc
000001c0: dff0 e43d 08ce c23d 84e8 f5bd 5a74 94bd
000001d0: a737 25be c4d0 983d c878 893d 2097 64be
000001e0: 64fd 61be fc29 9abd b238 adbf 13f3 173e
000001f0: 869c 5abf ca47 6fbe c87e db3e 118b bcbc
00000200: 87ed 06bd b49e 66bd d67b 0dbf f310 b8bd
00000210: 1c0e 4c3f 2642 13bc 2106 e53d c831 3fbc
00000220: 40f2 8fbd d183 bbbd a3e3 a63d a2f7 d93d
00000230: 0341 6abd 4519 19bd 04ef bd3c afcc 1c3d
00000240: d7a9 87be d761 963c 02a8 e1bd 993a a13b
00000250: 7943 29bd ec1b 87be 43aa 963e 658f 123f
00000260: b350 e23c 958f c13a e258 dd3d 3901 833d
00000270: 9dec 593d 08ce a13c 84f1 e6be b43c cf3e
00000280: c645 973c 4ecb 943d 203c a53d ee8c b7bd
00000290: aaa9 3cbe cf67 f73d ea98 b23d 39a9 b2bd
000002a0: 3699 363e 3645 7bbe 6c85 96bc 73fb 983e
000002b0: 0dd1 703e 5c1b 343e 5b88 0cbf e496 2ebe
000002c0: 83a1 babd f353 07bf 108b 7b3c b04f 4e3c
000002d0: 3092 87be 0b23 d13d 799d 853f 4d71 a23e
000002e0: 740b 4c3e cdf9 96be 1e77 a9bd ae90 093e
000002f0: e250 8d3e b5ca 65be 0656 2b3f 043a 3bbd

cell1.cell1.c2.body.0.bias f4 [8]
0.09590422 -0.11383793 -0.055894658 0.13189882 -0.24606049 0.0026144958 0.24837147 0.16562085
00000000: 6f69 c43d dc23 e9bd ccf1 64bd 7c10 073e
00000010: 48f7 7bbe f657 2b3b 1755 7e3e 8398 293e
